generator.pth (torch, 692831 bytes, 14 tensors)

l1.weight f4 [256, 136]
00000000: 66b4 81be 722f b4be bf63 493e 9f28 893d
00000010: 77b1 1cbd cfb6 f4bd 7f44 7e3d c500 4dbd
00000020: 97fb c2bd 4a23 483c d94d d83d 08f5 2dbe
00000030: 05a6 f13d 1609 81be e459 363e 4c32 4d3e
00000040: 4aff 343e dedf be3d d9da 0d3e 421e 903d
00000050: 2c29 92be 6c07 be3e 2a16 2d3e 7773 963e
00000060: 9f8e c9be 9928 eabd b056 7d3c 3e2c 3cbd
00000070: 3a24 803d 01fe 8b3e 2306 f0bd f022 3bbe
00000080: 7672 333e 1da8 943e c326 3dbe f517 9dbd
00000090: ff8e b5be 6094 fdbd 603c fb3d dd2d ff3c
000000a0: 95c8 69be 44d9 d8bc e8ff 4abe 5f44 953e
000000b0: 3e41 793e 6876 a6bd 813d 193d 0355 2a3d
000000c0: cc89 2c3d 1f23 bfbd 78f6 4bbc caef f4bd
000000d0: 154b 893e 8b4f 9b3e 2d84 3f3d bd15 f7bd
000000e0: c1e8 22bc f724 d3bc f2aa 083e 7294 a33e
000000f0: a571 01bc 85a9 1dbe 5aac 22bd e507 233e
00000100: efc5 cebd b21a 473e 6372 89bc 2e33 38bd
00000110: 04a8 783d 5f86 5ebd 18ef 11be 3e34 f7bb
00000120: 06cd 38be 6a68 1cbd 6e9e 8dbd ecf6 30bc
00000130: f8ea adbd e802 f13d 43f1 f03d 71f6 b7be
00000140: 3b13 86be d6b4 81bd 7b84 6cbe ab29 11bd
00000150: 80d8 b83e 0ac9 5abe 9f35 403e 89e7 3abd
00000160: b2cd b6bc db65 29be 0d46 1ebe 22ab 1dbe
00000170: ffc6 7a3d d4f6 1a3d dc0a 68be 8a48 9c3d
00000180: 586b babd fd30 d43d 7ad7 71be a91f 4b3e
00000190: b966 16be 9084 383d 9af6 cf3c a44b 623e
000001a0: 1997 d5bd c070 99be e864 673e 5002 ffbd
000001b0: 02ef 30be e2c3 173e 3d8a bfbd 0750 6ebc
000001c0: cdcb 3d3d b1b5 86be a21b 853c 6ae0 7abc
000001d0: bec1 2d3d 5188 8fbe c59d 353e e632 d93d
000001e0: fc49 a4bd f5ec febd 4bfe 413d 591e bdbd
000001f0: ffaf 1c3d 50e8 213c d5a1 b2bd b01e 513e
00000200: ff7c 543f a860 bc3f 4290 01c0 c314 ac40
00000210: 46f4 dfbf 8d41 20c1 0f35 83c0 8bc9 8040
00000220: 5cc8 753e ca7d b4be f533 55be 2e02 8dbe
00000230: 4e5a 0a3e 269b 32be 05c9 80be 2a37 e9be
00000240: 4cfa e4be 3ac3 13be 0e72 f23e ccc1 febd
00000250: 840a ba3c 6b9f bbbe a56d 783e e6dc 4fbe
00000260: 77d3 c03e 9a4e 19be 1246 80be 5457 c83e
00000270: 81fa 723c 6d34 12be e659 8dbd ddb5 973e
00000280: 775c c3bb 6214 5d3e e08d 96bc 2cdb 2f3e
00000290: 3bf0 7cbe 3815 a73c 20eb 3abe 1d72 81be
000002a0: f36e 1a3d ad4b d4bd 4232 fcbe 9923 ba3d
000002b0: e055 803e 78ee 653e 5c76 07bf acc3 5bbe
000002c0: 0ecd 2c3e 67da 423d 6cd3 edbc af52 123e
000002d0: 488c 13bd 968b b63e 5050 183e c058 5b3d
000002e0: 2462 ff3c 9120 c0bb 9766 c8be 0438 17bd
000002f0: b484 89be 7fdd 733e 07bb b33c abdc 643e
00000300: 07df 3bbe 3e76 543e 9ee3 6b3e 9159 6e3e
00000310: ba56 a33c a858 34bd e067 a0be 5f61 5a3d
00000320: d75a bcbe 71b4 3a3e 82d5 ae3d 511b 493e
00000330: 9130 613e d875 9bbd 3f51 0abe 548e 1cbe
00000340: 94ec e8bd 166d fdbd d943 0fbe 6601 7abe
00000350: 2070 b2be 5b38 cc3d 5f67 903d 19f6 873e
00000360: b9ea a53d 799a cbbe 4030 c63e 90b8 d1be
00000370: a9e7 76be 42bf 88be 0459 51bd bec2 82be
00000380: f15f 41be af81 413e d6eb 0bbe 11ac 223e
00000390: 9527 ca3e 24a5 fa3e 4d26 c33d 6946 073e
000003a0: e2cf 563e 7157 463e 36b1 3fbc 6608 5dbd
000003b0: 68ed 843e 99c0 de3d 8ecf 4abe 0f5f 783e
000003c0: fbe5 a1be 200a 22be 4d27 aabd 63f4 d5bd
000003d0: 2d73 4c3e 2c93 5c3e 8986 613d 6029 73be
000003e0: f30b 813d 90a4 50be 05d5 9bbe 9644 ee3d
000003f0: 98be 0cbd 0130 1c3e 862d 653d 5b05 63be
-0.25332946 -0.35192448 0.19666956 0.06697201 -0.03825518 -0.119489305 0.06207704 -0.050049562
-0.09520643 0.012215445 0.10561723 -0.16988003 0.11799244 -0.25202245 0.17807728 0.20038718
0.1767551 0.09320043 0.13853015 0.07037021 -0.28547037 0.37115037 0.16902986 0.29384968
-0.39366624 -0.11433525 0.015462562 -0.04594063 0.0625691 0.27342227 -0.117199205 -0.18275046
0.17524132 0.2903451 -0.18471818 -0.07670585 -0.3546066 -0.12381816 0.12267375 0.031149799
-0.22830422 -0.026470788 -0.19824183 0.29153726 0.24341294 -0.08128053 0.03741217 0.04158498
0.0421236 -0.09332871 -0.012448899 -0.11959799 0.26815096 0.30334124 0.046756912 -0.12064693
-0.009943188 -0.025774462 0.1334646 0.31949192 -0.00790063 -0.15396698 -0.03971515 0.1592098
-0.100963466 0.19443777 -0.016778177 -0.044970684 0.060707107 -0.054327365 -0.14251363 -0.0075440696
-0.1804696 -0.038185515 -0.06914984 -0.010801058 -0.08492082 0.117681324 0.11764767 -0.35930207
-0.26186547 -0.0633332 -0.23097412 -0.03544013 0.36102676 -0.21365753 0.18770455 -0.045630965
-0.02231488 -0.16542761 -0.1545641 -0.15397313 0.061224934 0.03783305 -0.22660393 0.07631023
-0.091025054 0.10360906 -0.23617354 0.19836296 -0.14687623 0.045048296 0.025386143 0.22099167
-0.1042921 -0.29968834 0.22597086 -0.12451613 -0.17278674 0.14820817 -0.09352539 -0.014545447
0.046336938 -0.26310495 0.016248528 -0.015312294 0.042421095 -0.2803369 0.17735966 0.10605411
-0.08021924 -0.1244754 0.047361653 -0.09234304 0.03825378 0.009882048 -0.08722273 0.20421863
0.8300323 1.4716997 -2.0244298 5.3775344 -1.7496421 -10.016004 -4.100227 4.0246024
0.24002212 -0.3525222 -0.20820601 -0.27540725 0.13511011 -0.17441997 -0.25153366 -0.455499
-0.4472221 -0.14429942 0.47352642 -0.124393076 0.022710092 -0.36645064 0.24260576 -0.2029911
0.37661335 -0.1497139 -0.2505346 0.39129126 0.014830233 -0.14277811 -0.069019124 0.29630938
-0.0059619504 0.21589807 -0.018378198 0.17173451 -0.24701016 0.02039586 -0.18253756 -0.25282374
0.037703466 -0.103659965 -0.49257094 0.09088821 0.25065517 0.2245425 -0.5291498 -0.21461362
0.16875097 0.047571566 -0.029031478 0.14289354 -0.036022455 0.3565337 0.14874387 0.053551435
0.031174727 -0.005863257 -0.3914077 -0.036918655 -0.26859057 0.23814963 0.021939768 0.22349803
-0.18346797 0.20748231 0.23036048 0.23276354 0.019938815 -0.04402986 -0.3132925 0.053315517
-0.36788055 0.18232895 0.08536817 0.19639327 0.21991183 -0.07590836 -0.13507555 -0.15288669
-0.11373249 -0.12374322 -0.13990726 -0.24414596 -0.3485117 0.099716865 0.070509665 0.26554945
0.081014104 -0.3976629 0.38708687 -0.40961123 -0.24111809 -0.26708418 -0.051110283 -0.25539201
-0.18884255 0.18897127 -0.13664183 0.1588595 0.39483324 0.48954117 0.0952879 0.13210453
0.20977738 0.19369294 -0.011699965 -0.053963087 0.25962377 0.10876579 -0.19805738 0.24255012
-0.31620774 -0.15824175 -0.08308277 -0.10447004 0.19965811 0.21540517 0.055059943 -0.23746252
0.06301107 -0.20375276 -0.30435959 0.116341755 -0.034361452 0.15252687 0.055951618 -0.22170012

l1.bias f4 [256]
00000000: 9865 ac3d fc57 8b3d 8db0 cd3c c736 813d
00000010: 09a9 903d 22a4 383d 1b36 ecbb 3024 a63d
00000020: c6d1 e33b 65d0 c53b 8276 3f3c b18a 833d
00000030: 8e77 9ebd 2b36 313c 6f5f 6fbd 30be 9bbd
00000040: fc90 8fbd 9fee 48bc 3cb2 403d 9cd6 483d
00000050: 790a 47bd 9935 c33c 219e 6abd 3125 36bd
00000060: 3327 753d 6d8e c3bc 5cc0 87bc 0194 cc3c
00000070: c838 7b3d 6e7a 83bc 85d8 483d 011a 103d
00000080: 5db1 3e3d 14c5 8a3d 2b4d d0bb 38b3 24bd
00000090: 67d7 9d3d 9afd a7bd 35ef 8a3a d3a9 f4bc
000000a0: 8047 963d 6609 83bd b823 a6bd 0c78 f93c
000000b0: 15a8 a3bc 4783 93bd 0fa3 233c 9cd5 803c
000000c0: 054f 9d3d 1d78 48bd 52fd 82bb bf3d a53d
000000d0: efb8 bf3c 252e 943d e924 01bc 07db 913d
000000e0: efd1 05bc e304 133d 67b6 453c 327f a73d
000000f0: 17fc 4a3c 3cc8 ae3d 85eb 46bd fab0 74bd
00000100: 5c6e 89bd 09ca 363c 063c 1d3d 73f6 8ebd
00000110: 18b4 733d 52e2 013d 8ad7 74bd ed55 08bc
00000120: 96c8 3d3c a10f 233d 9b2a a9bd 757a 09bd
00000130: b437 9c3b 5584 243d 4b4f 8d3d f90b ce3c
00000140: dec6 6fbd b67b 7cbc 9d88 6abd 0920 263d
00000150: 6cad 26bd b089 ae3d 98aa 5b3d daa2 79bd
00000160: fa02 e5ba 7f0d 903c dc9d 963c c5ea 233d
00000170: d18f 7c3b d4a0 56bd 1217 8e3d 14d2 8cbd
00000180: 4d69 00bd 1cd1 a7bd d4fa 8bbc 8d41 d1bb
00000190: da59 6bbd 6c91 3bbd 8cf0 5e3d 9eb6 903d
000001a0: 9e81 8abb 30f5 9d3d 7dac 06bb fb59 a43c
000001b0: 71af 09bd 56d0 8dbd ac93 15bd ec66 253d
000001c0: 7f82 2fbd 3cb9 a13d 1096 113d f335 94bd
000001d0: cec9 993d c739 61bd c9dd bbbb 5543 b4bc
000001e0: 3b88 dc3c 1293 a43d b371 9abd 49a5 043d
000001f0: bfb8 4d3d 13b3 2a3d 4043 203d ecd6 16bc
00000200: a6f8 7fbd 26f5 853d 4ce0 4bbd ca23 04bd
00000210: 8328 eabc 0bae 8bbb 35d1 6c3d bdb3 8cbd
00000220: 61b7 34bd 0d86 1f3a aba5 0a3d 016d 153d
00000230: efd2 ac3c 87f7 573c e35c 853d 8844 56bd
00000240: 6d88 a83d 13e6 6dbd 21d7 4abc 2833 883d
00000250: 4e07 52bc dd09 2fbd 142a 973d 96ab 603d
00000260: fb72 fbbb 6a05 333d f0af 953b 1bbf 75bd
00000270: b4f0 123d f500 8c3d 3506 aa3d 6e41 d3bb
00000280: 6ec4 6cbd 80c8 1a3c a4a7 a8bd e2f8 e13b
00000290: 33df 063d 2143 0a3d 9294 663d 7ce5 b6bc
000002a0: 4e2e 003d 3edc 4bbd bd3d 943d e14d e83c
000002b0: 8998 823d fe90 63bc 71f0 5dbd ebe1 773c
000002c0: 63f9 fd3c b148 25bd 9c75 4fbd be9d 73bd
000002d0: 317c 803b 2fe8 9dbb a57b 4e3d 2849 9d3c
000002e0: 6a74 953d afb1 56bd f95a 813c 0857 803c
000002f0: e640 afbd 7020 c03a 41c2 1f3d e8fc 6fbd
00000300: 6b1f 63bd 0fbf c739 46df c0bc ec71 a93c
00000310: a0fb 62bd f35d d7bc 77fe 67bd 1031 34bc
00000320: 75f3 64bd 3fc8 2f3d ecbb 473d 24b5 063d
00000330: 7272 5cbc d568 a63c 06df d738 e590 683c
00000340: 1bd1 fabc 4479 42bc 6579 71bd f02f 8d3d
00000350: c836 923d 1f14 09bd 9be5 1c3d 96f2 4cbd
00000360: 5b92 2cb9 492b d63c fe9a 41bd d6e7 813c
00000370: 6eb8 133d 778d 333d 7a7a e93c 796f 3bbb
00000380: eb05 163c fd92 91bd 0a05 94bc d0dd 70bd
00000390: 68eb 0a3d dc06 ab3c 3abf 14bd a131 96bd
000003a0: 45f5 713d f33a a33d 8237 e73b 2e18 283d
000003b0: adf2 283d 91df d8bc 38a3 c5bc a006 a4bd
000003c0: 4487 3c3d c60b a3bc ee91 ffbc 1ed5 cd3c
000003d0: d998 5ebd 7618 403d 15cc ff3c 0e39 c63c
000003e0: 0202 353c d8c9 dfbc 529c 2abd 5475 a0bc
000003f0: 7a13 683d ebcf 4ebc 4dd2 aa3d 5086 38bd
0.08417815 0.06803891 0.0251086 0.06309276 0.07063491 0.045078404 -0.0072085983 0.08112371
0.006952497 0.0060368055 0.011685969 0.06422938 -0.07737647 0.010816137 -0.058440622 -0.07604635
-0.070100754 -0.012263923 0.047044978 0.049032792 -0.048593972 0.023829268 -0.05727971 -0.044469062
0.059851836 -0.023871625 -0.016571216 0.024972918 0.061333448 -0.01604959 0.049034614 0.03518105
0.046555866 0.06775871 -0.0063568554 -0.04020998 0.077071 -0.082026675 0.0010599854 -0.029866135
0.07337856 -0.06398277 -0.081122816 0.03045275 -0.019977609 -0.072027735 0.009987607 0.015726857
0.076810874 -0.048942674 -0.0039974833 0.08068418 0.023403613 0.07235364 -0.007882335 0.07121854
-0.008167728 0.035893332 0.012067414 0.081785575 0.012389204 0.085342854 -0.048564453 -0.05973909
-0.067105025 0.011156567 0.03838732 -0.069806 0.059497923 0.031709976 -0.059775867 -0.008321268
0.011583468 0.039809827 -0.082600795 -0.03356405 0.0047673825 0.040165264 0.068998896 0.025152193
-0.058539264 -0.015410354 -0.05725919 0.040557895 -0.04069273 0.085223556 0.053629488 -0.060946323
-0.00174722 0.01758456 0.01838582 0.040018816 0.003853787 -0.05239947 0.06937994 -0.06876007
-0.031350423 -0.08194181 -0.017087378 -0.006385988 -0.057458736 -0.045792982 0.054428622 0.070660815
-0.0042268774 0.077127814 -0.0020549588 0.020062437 -0.03361458 -0.069245026 -0.036517784 0.040381357
-0.04284906 0.07896659 0.0355435 -0.072368525 0.07509194 -0.05498674 -0.005733226 -0.022004763
0.026920428 0.08035864 -0.07541218 0.03238419 0.050225016 0.041674685 0.039126635 -0.009206515
-0.06249299 0.06540899 -0.049774453 -0.032260694 -0.02858377 -0.004262691 0.057816703 -0.0687022
-0.044120196 0.0006085344 0.0338494 0.036480907 0.021096675 0.013181574 0.06511857 -0.05231145
0.08229146 -0.058080744 -0.012380392 0.06650382 -0.012819124 -0.042734016 0.07381073 0.054851137
-0.007673619 0.043706335 0.0045680925 -0.059996706 0.035874084 0.0683612 0.08301965 -0.006447009
-0.057804517 0.009447217 -0.082351 0.006896124 0.032927703 0.033755425 0.05629403 -0.022326224
0.03129416 -0.049770586 0.07238338 0.028357448 0.0637675 -0.013889549 -0.05418438 0.015129547
0.031002706 -0.040352527 -0.05064927 -0.059476607 0.003921055 -0.004818938 0.050410885 0.019199923
0.07297595 -0.052415546 0.01579045 0.0156665 -0.085573 0.0014658105 0.039003614 -0.0585908
-0.055449884 0.00038098588 -0.023543965 0.020684205 -0.05541575 -0.026289916 -0.05663916 -0.010998026
-0.05589624 0.04291558 0.0487632 0.032887593 -0.01345502 0.02031366 0.0001029354 0.014194702
-0.030617287 -0.011869732 -0.05895366 0.06893909 0.07139355 -0.033466455 0.038304906 -0.050036035
-0.0001645772 0.026143687 -0.047266953 0.015857618 0.036064558 0.043836083 0.028500784 -0.0028600378
0.009156684 -0.07108114 -0.018068809 -0.058805287 0.033915907 0.020877294 -0.03631518 -0.07333685
0.059071798 0.07970228 0.0070561776 0.041038685 0.04124706 -0.026473792 -0.02412568 -0.08009076
0.046027437 -0.019903075 -0.031197514 0.025126036 -0.054344986 0.046898328 0.031225244 0.024197128
0.011047842 -0.027317926 -0.041652985 -0.019587196 0.0566592 -0.012622814 0.08340893 -0.045049965

bn1.weight f4 [256]
00000000: dd2a 2c40 be63 2a40 2745 0bbe cd1b 7940
00000010: 517c fb3d 6a31 ca3f f811 603e c1e2 9440
00000020: 8d3a 3440 2584 b43e 258b e43d 2211 0d3e
00000030: a144 d53f fcca 2840 44e0 4140 6b05 8240
00000040: 4b0b 5940 dd7d ef3e 97e0 9340 10e5 983f
00000050: 40b5 c23c 76cd 2840 b63a 003e daea 3240
00000060: 7672 363e afd3 ed3d 8dde fb3d 6a95 4c3e
00000070: a63a 253e 1861 9c3e 8b2a 9e40 f152 203e
00000080: 0109 2c40 3f2c 5c3e 5f2c 2f40 8d3c f4bf
00000090: 81c5 e63d 13b7 1540 1933 103e cbea a13e
000000a0: adba 823e 038b 153e c79e 0cc0 c829 06be
000000b0: b8e8 5d3e 6685 6d3e 5393 c53d 2cda 3e3e
000000c0: 6664 4a40 8fb9 6a3d be8f 3d40 648d fe3e
000000d0: 5ca9 8640 96e1 5d40 3d15 c440 2c52 543e
000000e0: 3327 89be bb33 adbe 2e30 6e3e 9eff f53f
000000f0: dd01 ed3f 6160 4d40 982d c840 1927 2440
00000100: 618e 2940 fe57 d03e edb3 2740 30be 363e
00000110: 8591 be3e 6454 fd3f 3651 6b3f 588d 043e
00000120: 485f 643e f316 4e40 e885 283e 9c1d ab3f
00000130: bb9c 0f40 f1dc 053f 53c3 8a40 9e65 6440
00000140: e5f5 6440 ea0d 913f 9443 513e 9f2e 9d40
00000150: 8406 7a40 7922 8c3d ddd8 8e40 b088 5ec0
00000160: ecf8 623d 768f 8940 be97 db3f bd2d 6940
00000170: a9b3 8040 3a8d 8e3d ce9d 943e f93c 2640
00000180: 08fe 1b40 478d 1340 d987 9d3e 764f 3b40
00000190: c622 bf3f 83a6 013e f42e 2540 b360 c73f
000001a0: b6e9 563f 76b2 ad3f 68f1 063f e53a ec3d
000001b0: 394f eb3d 1bf3 873e 9da4 403e 4f66 fc3f
000001c0: 5575 c93e 4592 4640 a724 a23e 4c2f 973e
000001d0: b3ef d33d 532d 1140 7361 e43f 8a69 f53f
000001e0: 3198 dc3f 946e a33f f005 3f40 8a15 df3d
000001f0: 7220 5b40 d317 1340 ff73 9abf b956 e83e
00000200: bb09 2c3f 4bfb a33f 6205 283e 9e3a 123f
00000210: 1d04 4d3e ca3c d93e 805f 483f d25e 1d40
00000220: b9a4 1b40 56f5 9040 c447 d13f 0410 d7be
00000230: a42e ac3e d030 be3e c548 7a40 0777 2040
00000240: 1f9e 6040 45ee 5340 98f7 463f b0e7 4140
00000250: 1f21 0b3f e45e 733e f37f 4d3e 76ec eb3e
00000260: de7a 5040 7514 6d40 7b7b b33e 322a f5bf
00000270: 1a02 fa3d 4f05 2ebe e033 4e3e 21ce 2c3e
00000280: 5d9e 853c f0d0 793e 2e77 f43f fe72 6c40
00000290: b2bb 1c40 1a0f d93e 5b2a 213e 2ace 4240
000002a0: 6c83 263e 0f96 9840 f914 063e 3bf1 e83e
000002b0: 5d73 3140 1773 e63d 2f43 ac3d da41 423e
000002c0: 6b3b 593e 1901 0240 ad06 8a40 fa02 8d3e
000002d0: 313c 9e40 49a8 f23f 0564 d6bd 2b70 3240
000002e0: df88 a33e f8db bb3e abbf a83d c467 4c3e
000002f0: 7912 e33f 4b40 7f40 6045 0840 91db 3b3e
00000300: f6e6 0f40 2782 d63c 25be ad3f 9e8f a83f
00000310: 6c3f 4b3e 91af 173e 5396 b53f 6d70 203e
00000320: c740 4b40 bb50 083e 79c0 783d f358 f63d
00000330: f367 8840 de48 3a3f 6aec f03f a92d 2640
00000340: 9759 c23f 78ef 9240 e56b ed3d bcd7 e73e
00000350: b23c 073f c879 4f40 b9e2 b93e ee74 8f40
00000360: 690a 1a3f 0972 323e 065f 1b3e 05a8 89be
00000370: 94bf e13d 8afc 4640 3ad4 9cbe 34b1 1040
00000380: c837 f93d 4d88 5a40 ba42 8740 77a5 8c3c
00000390: c74f 0840 f388 c93d 59b6 993e 8aca 2d3e
000003a0: d4d9 cf3e 9ad9 313f 3262 2840 2e6b 613f
000003b0: b06e ce3f 157e 9a3e 2613 6c40 d7ea 173e
000003c0: 9bba e43e 1245 0a40 e29a 383e 08d0 1d3e
000003d0: ae48 893f 9fc9 2c3f d66c f03e 30c1 4c40
000003e0: 7300 0540 013d 1140 da4f 88bd f108 82be
000003f0: 0d79 3c3e b8b7 4240 1be9 da3d 2ed6 24bd
2.6901162 2.6623378 -0.13600598 3.8923218 0.12279571 1.579633 0.21881855 4.65268
2.8160737 0.35257068 0.11159352 0.13776067 1.6661569 2.6373892 3.029313 4.0631614
3.3913143 0.46775714 4.6211658 1.1944904 0.023768067 2.6375403 0.12522396 2.7955842
0.17817101 0.11612641 0.122983076 0.19978872 0.16135654 0.30542827 4.942693 0.1565664
2.6880496 0.21501254 2.7370832 -1.9080979 0.1126814 2.339299 0.14081992 0.31624445
0.25533047 0.1460381 -2.197191 -0.13101876 0.21670806 0.23195419 0.096472405 0.18637913
3.1623778 0.05730587 2.9618983 0.49717247 4.2081738 3.4668937 6.1275926 0.20734471
-0.2678772 -0.3382853 0.23260567 1.9218633 1.8516194 3.2090075 6.2555656 2.5648863
2.649315 0.40692133 2.6203568 0.17845988 0.37220398 1.9791379 0.91920793 0.12944543
0.22301972 3.2201507 0.16457331 1.3368411 2.243941 0.52290255 4.3363433 3.5687022
3.5775082 1.1332371 0.20435935 4.911941 3.9066477 0.06842513 4.4639726 -3.4770927
0.05541317 4.2987623 1.7155683 3.6434166 4.021931 0.069605306 0.29026645 2.5974715
2.4373798 2.305498 0.30767706 2.926725 1.4932487 0.12661175 2.5809908 1.5576385
0.83950365 1.3570087 0.52712107 0.11534671 0.1148972 0.26552662 0.18812795 1.9718722
0.3934733 3.1026776 0.3166859 0.29528272 0.103484534 2.2683914 1.7842239 1.9172833
1.7233945 1.2768121 2.9847374 0.1089278 3.4238553 2.298329 -1.2066649 0.45378664
0.6720235 1.2811064 0.16408303 0.5712069 0.200211 0.4242919 0.7827072 2.4589124
2.4319289 4.529948 1.6350026 -0.42004406 0.33629334 0.37146616 3.9106915 2.5072649
3.509651 3.3114178 0.7772155 3.029766 0.54347414 0.23766667 0.2006834 0.46078843
3.2574992 3.7043736 0.35055146 -1.9153502 0.12207432 -0.16994213 0.20136976 0.16875507
0.016310865 0.2439611 1.9098871 3.6945186 2.448956 0.42394334 0.15738814 3.0438333
0.16261071 4.7683177 0.13093938 0.45496544 2.7726662 0.112524204 0.08411252 0.18970433
0.21214072 2.031317 4.313315 0.27541333 4.9448476 1.8957607 -0.10468296 2.7880962
0.31940362 0.3669126 0.08239683 0.19961458 1.7740012 3.9882991 2.1292343 0.18345477
2.2484717 0.026185108 1.3573653 1.3168828 0.19848412 0.14813067 1.41865 0.15667887
3.1758287 0.13312046 0.06073043 0.120286845 4.262689 0.72767437 1.8822148 2.5965369
1.5183591 4.591732 0.11592845 0.4528178 0.5282699 3.241808 0.36305788 4.4830236
0.60172135 0.17426313 0.15172967 -0.26886 0.11022869 3.1091638 -0.30630666 2.2608156
0.121688426 3.4145691 4.2268953 0.017168744 2.1298692 0.09840574 0.30021933 0.16971794
0.40595877 0.6947266 2.6309934 0.8805417 1.6127529 0.30174318 3.6886687 0.14835678
0.4467362 2.1604657 0.18027833 0.15411389 1.0725305 0.6749515 0.46958035 3.1992912
2.0781524 2.2693484 -0.066558555 -0.25397447 0.18405552 3.0424633 0.106889926 -0.04024332

bn1.bias f4 [256]
00000000: 7805 833f d40d 1b3f 49ce f63f f629 7cbe
00000010: f767 1ebf ff3d 8cbf ae1b 06bf 22f5 f5be
00000020: 3763 0e40 09b0 8bbf 631b 09bf 8a10 08bf
00000030: be39 9c3f 8078 1a3f 11d8 dbbe fcaa 1140
00000040: 6047 6abf d70a c5bf a7c5 94bf a2c3 20bf
00000050: 7f4c b9be e659 1fc0 80ea 2cbf 09f8 a73e
00000060: 8219 49bf e4dc 24bf f548 08bf 02cc 4fbf
00000070: 1c52 37bf 895c 45bf c8fc 863f 4326 2dbf
00000080: b046 efbe ed3e 68bf a4db 083f 5c32 1abf
00000090: fedc efbe 8966 c0bd 0473 20bf a702 59bf
000000a0: 9bb1 42bf ea14 1bbf baad aa3f a715 d83f
000000b0: 3efb eabe f544 1ebf 3be7 06bf d792 62bf
000000c0: 9e84 833f 34c5 9bbe de54 42bf d756 b7bf
000000d0: b997 39bf f05d bd3e 9361 fc3e cfb4 48bf
000000e0: d97a 81bf 1702 cc3f 8a69 bd3f b1a3 bf3f
000000f0: 350f 11c0 47fb 97bf 502c a340 cc8a 1740
00000100: 6fdb 43c0 8d2c b8bf 4ddb b63d 4169 63bf
00000110: c58c 46bf ae15 2240 052a 0440 5012 f4be
00000120: 6c49 4bbf ad2b 5c40 247f 35bf 653c 1e40
00000130: 1bfd 70be 86e7 cebf ded6 f1bf 9bf5 2dbf
00000140: b256 f53e 3b5f ad3e 75e6 6abf 01dc 393f
00000150: 11b2 ef3d 2f71 a2be 6e73 79bf d3d9 63bf
00000160: 135a 4abe 957a 693f d31f 1ec0 6bdd 0f40
00000170: 1223 653f f0a2 83be d39b a3bf 5fd8 3c40
00000180: 0a91 3bc0 8acc 41c0 2163 99bf 5673 473d
00000190: 5b91 ca3e f712 01bf 9efc 4740 5589 ae3e
000001a0: a3a0 1b40 c4ab 953f d462 4440 8392 f9be
000001b0: 7e4f 17bf 1b79 a7bf 3971 68bf 34fa 26bd
000001c0: bc31 81bf 2f62 1340 1f00 95bf 1f20 83bf
000001d0: 7d88 f1be 855b 21c0 76aa e4be 48d5 423f
000001e0: a27c 5dbe c0aa 003f ca10 86bd 9e3a fbbe
000001f0: 6b3b e13f 0dc9 d9bf 0d3b 0740 d90d a5bf
00000200: e48a d0bf 8cca 353e d717 35bf 1398 b4bf
00000210: 774c 4bbf 5766 c6bf a365 00c0 b26f 5140
00000220: d6ec 49be 7e9e 283f 6a3d 893f 6b52 57bf
00000230: ecb4 72bf 659c cebf b2b6 dcbf d87d 3cbf
00000240: 5d44 10bf ecd8 d8bd b0b3 683f 5a72 fbbf
00000250: 0388 cebf 376e 5dbf 5066 72bf 6d7e c7bf
00000260: ac4e 28bf c2ec c3bf a001 47bf d41a 5940
00000270: 5a93 0bbf 4a60 af3f 24ff 50bf 3096 51bf
00000280: 9828 8ebd 12ad 6bbf d988 c6be 2693 943e
00000290: a5b0 14c0 8fcf a2bf e28e 4dbf 827c b7bf
000002a0: 648d 46bf afa1 093f 284e 3ebf e8c5 8e3f
000002b0: 3760 c73f bd9c 02bf 43a6 3ebe d790 51bf
000002c0: cd8d 46bf 10f5 3440 8ec4 78bf 8465 7a3f
000002d0: 6c8b 653d e08c ab3e 4ba5 e5be e3d3 16bf
000002e0: b3be abbf c208 48bf 38bb 9cbe c2bb 75bf
000002f0: c30f b13e 1fc0 d13f fb37 2cbf 9665 d2be
00000300: c57d 85c0 da2f 01be ed36 8a3e fed9 60c0
00000310: 39a1 64bf 7e08 cebe c8ab b73f 1b70 2abf
00000320: a3ad a33f 6066 24bf b675 9dbe 17ce 8dbe
00000330: 621f c1bf 4559 c53e 7404 a5be efe0 52bf
00000340: 35cb 2840 6956 a93f 435d fdbe 1509 c2bf
00000350: 164a c5bf 565f 18c0 c83b 97bf 5d7d 6f3f
00000360: 5276 debf e067 54bf d43e 23bf 46fb 74bf
00000370: a841 fcbe 2810 54be 5315 2ebf d5c0 813f
00000380: 6271 efbe 9af7 073f 0065 4e40 f7d8 c7bd
00000390: 3332 19c0 4526 e7be 5757 8dbf 6a77 2dbf
000003a0: 4cb1 96bf c5d0 ffbe 59e2 8ebe 10bc d1bf
000003b0: a8be bbbf 1ec4 89bf 39b3 083f 83d8 22bf
000003c0: bed0 d0bf a30c 7e3d f4ae 3fbf 2d70 fcbe
000003d0: 3256 3c40 01ef 13bf 312c babf 2a87 c93f
000003e0: 128e 353f 62d8 eabe add6 a3be d8eb 16bf
000003f0: ed89 4ebf b764 913f 60ab 00bf 5632 3cbe
1.0236044 0.60567975 1.9281703 -0.24625382 -0.6187739 -1.095642 -0.52385986 -0.48038584
2.2248056 -1.0913097 -0.53557414 -0.53150237 1.2205122 0.6034012 -0.42938283 2.276061
-0.9151516 -1.5393933 -1.1622819 -0.6279851 -0.36191174 -2.489862 -0.6754532 0.32806423
-0.78554547 -0.6439955 -0.53236324 -0.81170666 -0.71609664 -0.7709432 1.0545893 -0.6763651
-0.46733618 -0.9072102 0.53460145 -0.6023309 -0.4684829 -0.09394557 -0.626755 -0.8476967
-0.76052254 -0.6057879 1.3334267 1.6881608 -0.45894808 -0.6182397 -0.5269658 -0.8850531
1.0274847 -0.30423892 -0.7591075 -1.4323376 -0.72497135 0.3698573 0.49293193 -0.7840089
-1.0115615 1.5938138 1.4797833 1.497183 -2.2665532 -1.1873559 5.0991592 2.3678465
-3.0602682 -1.4388596 0.08928547 -0.8883248 -0.7755855 2.5325732 2.0650647 -0.4767022
-0.7940891 3.4401658 -0.70897126 2.4724362 -0.23534052 -1.6164405 -1.8893697 -0.6795289
0.47917706 0.33861718 -0.917579 0.72601324 0.11703885 -0.31726977 -0.97441757 -0.8900425
-0.19760923 0.9120267 -2.4706924 2.2478893 0.8950664 -0.2571025 -1.2781929 2.9507062
-2.9307275 -3.028109 -1.1983377 0.048693977 0.39564022 -0.50419563 3.1247935 0.3408915
2.4316795 1.1693044 3.068532 -0.48744592 -0.5910567 -1.3083833 -0.90797764 -0.040765956
-1.0093303 2.3028677 -1.1640662 -1.0244178 -0.47174445 -2.521211 -0.446613 0.7610669
-0.21629575 0.50260544 -0.06546171 -0.4906816 1.7596258 -1.7014481 2.1129792 -1.2894851
-1.6292386 0.17753047 -0.707395 -1.4108909 -0.7941355 -1.5499982 -2.0062034 3.2724423
-0.19719252 0.6586684 1.0721867 -0.84110135 -0.94807315 -1.6141478 -1.7243254 -0.7362952
-0.56354314 -0.105882496 0.9089918 -1.9644272 -1.6135257 -0.864963 -0.94687366 -1.5585457
-0.65745044 -1.5306628 -0.77736855 3.3922625 -0.54521716 1.370126 -0.81639314 -0.8186979
-0.069413364 -0.9206096 -0.3877628 0.29018515 -2.3232815 -1.2719592 -0.80296147 -1.4334872
-0.77559495 0.53762335 -0.74338007 1.1154146 1.5576237 -0.51020414 -0.18618111 -0.81861633
-0.7756012 2.8274574 -0.9717492 0.9781115 0.056041166 0.33505917 -0.4485267 -0.58917063
-1.3417572 -0.78138363 -0.30611587 -0.9598962 0.34582338 1.6386756 -0.6727292 -0.4109313
-4.1716027 -0.1261591 0.2699503 -3.5133052 -0.89308506 -0.40240854 1.4349298 -0.6657731
1.2787365 -0.6421871 -0.3075387 -0.27696297 -1.5087702 0.3854467 -0.3222996 -0.8237447
2.6374028 1.3229495 -0.49485216 -1.5159022 -1.5413234 -2.3808188 -1.1815119 0.93550664
-1.7379858 -0.82971 -0.63767743 -0.9569591 -0.49268842 -0.20709288 -0.6800129 1.0136973
-0.46766192 0.53112185 3.2249146 -0.0975818 -2.393689 -0.45146385 -1.1042279 -0.67760336
-1.1772857 -0.49963966 -0.27907065 -1.6385517 -1.4667559 -1.0762975 0.5339847 -0.6361162
-1.6313703 0.06202377 -0.7487633 -0.49304333 2.942761 -0.57786566 -1.4544736 1.5744374
0.7091991 -0.45868212 -0.31999722 -0.5895362 -0.8067921 1.1358861 -0.502615 -0.18378577

bn1.running_mean f4 [256]
00000000: 68b8 733c d1fd 54c0 9d3a 65c0 e6e7 f1bd
00000010: 7e23 183e 98d1 a9be 24e4 19c0 5d5b d13e
00000020: 3fd0 febf f0eb 83bf 1c5a a53d 3279 b6bf
00000030: bbd6 44bf 824f ee3f 33d0 933f 3996 0f3f
00000040: 1676 e4be 14ec 37bf 9a2d ce3f 1837 e1be
00000050: 67be 663d 1f08 a9bf 81d0 d6be 1b35 6abe
00000060: 03e2 293f ee6c 05bf 1d52 ab3e 6b24 723f
00000070: 5eab 1fbf f8ab b4be 8ac9 b23e 7e6b 86bc
00000080: 6fa6 963e 3aad a1be 4df0 e3bc 18e1 ea3d
00000090: d642 0e3f d314 24bf 1153 4b3f aa97 86bf
000000a0: bfbc b8be 68ab 30bf b3df af3d 9f6c 57bf
000000b0: de97 25bf b87c d6bf 96e2 353f 04c9 ca3e
000000c0: d568 003e 9e4f d73f 3533 9bbf 910e 83bf
000000d0: b0b9 873f 3353 aec0 23d9 923f 563f 7b3f
000000e0: 6d85 80c0 f2d3 5fbf b944 24bf e581 d2be
000000f0: ede9 543f 32e0 4f3e 9ccc 4a40 c6df 373f
00000100: c376 6b3e 9b98 333e d7e4 96be 971b 163e
00000110: 0b55 d2be 45a0 903f 1645 d1bf c865 723f
00000120: 0588 53bf 9421 4b3f 4102 babe 9456 80c0
00000130: e09a 3fbe ddf7 05c0 9a47 3dc0 8f0c 80bf
00000140: 6e00 36be 29c8 c6bf 7425 4840 3b55 b4c0
00000150: 0d4e 8b3e 2f88 1640 c3f8 41c0 da19 bfbf
00000160: 766b b23f 7ab5 973f ae65 103f eb84 383f
00000170: 70ea 87bf d048 a0bf d5e1 1940 c84a b13f
00000180: 6068 d23d d671 3140 ed57 fa3f 9f3e 31bf
00000190: 88ef 81bf 516d dcbe 5083 293f 736a 313f
000001a0: 3c3e 26bc a1bb 8e3f 9a9f f7bf 8080 033f
000001b0: 1a07 6e3f db47 2bbd d016 51bc c469 2040
000001c0: 05ad 543f a5e9 033e 751d 55bf f81a a2c0
000001d0: 5bfc 3c3f 0a3e 6e3f 243c 053e f1cf 1040
000001e0: c687 e23f 08db d9be 1ff5 2c3f de34 a6be
000001f0: 8646 15c0 91e2 8b3f b59c 1940 f972 b7be
00000200: 7c1c 10bf 6265 9e3f 418b 4c3f 1822 54c0
00000210: 3458 193f a928 a5be db7e bebd 5361 4c3e
00000220: 1bb2 873f da88 c1c0 fcc5 9f3e b0d0 3dbf
00000230: 52a4 87bf fb12 b9bf 5eaf ce3f f7cd ca3f
00000240: 8358 0340 2830 09c0 cc0b 1140 59b7 90bf
00000250: f9d1 4d3f 031d 4b3f 4445 893f 68e7 a2bf
00000260: 7a8f d3bf 71e6 32c0 15d1 efbe ed7d 0540
00000270: d95e 183f 87f5 d1bf a57d 9d3e 4cd5 1040
00000280: de5f 0a40 a6f7 1cbd b8fa e13f e622 c2c0
00000290: 305d 033f ec93 163f e899 fd3f 281a 323f
000002a0: f4a1 f03f 0834 11c0 c67c d23d ef14 a13f
000002b0: e60d 7c3f dffc 38bf 249f d93f c758 dc3e
000002c0: 24d8 c6bf e315 2140 62f1 1940 f003 243f
000002d0: 3494 123e 918e e33f d41e ba3f 8cec 053c
000002e0: 4c11 9dbf 8864 c33f 7523 1840 651d eb3f
000002f0: 039b 95bd ead9 83c0 a574 10c0 dd8c a3be
00000300: e110 1abf 1941 133f 308d 293f b0b6 d23f
00000310: 81de 173e ed4f 283d 136a 7bbf f25f 873e
00000320: 784e b5be a03b 8a3f b205 d8be a6cd 46bf
00000330: 799f 8d3e 5432 19c0 6aaf 1abf 1227 be3f
00000340: ad6b 23c0 5508 9bc0 6626 eb3e 5261 a5bf
00000350: 1a6a 59c0 db85 303f 7cb1 c2bf 3894 5cc0
00000360: d290 c1bf bd44 483f d57f f03e 38a3 88c0
00000370: 37d9 04be b410 a8bf 56a1 8bbd 9810 f13f
00000380: 9215 e13e 5a93 903f cf04 bc3f efe0 17be
00000390: a002 8a3f eda2 bf3e ca75 cfbe 02a2 6fbd
000003a0: b4ca cabf 44e1 8d40 2976 debf 1966 a03e
000003b0: 0048 c638 c2cb 37c0 f07b 2dc0 8df8 893f
000003c0: a147 b7bf d09b d93f 2b8a be3b c26e 3ebf
000003d0: 468a edbf 8de5 5d3e f853 32bf ae45 e73f
000003e0: b038 9d3e 38f1 f93e 5bdb f13f f4a6 c33e
000003f0: 4584 05bf 7623 0b40 9d05 00bf 2f94 5640
0.014875509 -3.3279917 -3.5817025 -0.11811809 0.14857289 -0.3316772 -2.4045496 0.40890017
-1.9907302 -1.0306377 0.080738276 -1.4255736 -0.7689015 1.8618014 1.1547912 0.56088597
-0.44621342 -0.718446 1.6107666 -0.43987346 0.056333926 -1.3205603 -0.4195595 -0.2287182
0.6636049 -0.5211934 0.33461085 0.9458682 -0.6237086 -0.35287452 0.34919387 -0.016408678
0.29423854 -0.31577474 -0.027824545 0.114687145 0.55570734 -0.64094275 0.79423624 -1.0515034
-0.36081502 -0.69011545 0.08587589 -0.8415012 -0.64684856 -1.6756811 0.7104887 0.39606488
0.1253999 1.6821172 -1.2125002 -1.023882 1.0603542 -5.447656 1.1472515 0.9814352
-4.0162873 -0.8743278 -0.6416736 -0.41114727 0.8316944 0.20300367 3.1687384 0.71825826
0.22994523 0.17538683 -0.29471466 0.14658962 -0.41080508 1.129891 -1.6349208 0.94686556
-0.82629424 0.7934811 -0.36329845 -4.0105686 -0.18711424 -2.0932534 -2.9574952 -1.0003833
-0.17773601 -1.5529834 3.127286 -5.635404 0.27207986 2.352062 -3.0308082 -1.4929764
1.3939044 1.1852257 0.5640515 0.72077817 -1.061842 -1.2522221 2.4044087 1.3850946
0.10273814 2.772573 1.9558083 -0.6923618 -1.0151224 -0.43052152 0.6621599 0.69303054
-0.010146674 1.115101 -1.9345582 0.5136795 0.92979586 -0.041816574 -0.012761787 2.5064554
0.83076507 0.12882097 -0.8324807 -5.065792 0.73822564 0.93063414 0.13011223 2.2626917
1.7697685 -0.4254992 0.67561525 -0.3246221 -2.3324294 1.0928518 2.4001896 -0.35829905
-0.56293464 1.237469 0.79899985 -3.314581 0.5990021 -0.32257584 -0.093015395 0.19959001
1.0601228 -6.0479555 0.31205738 -0.74146557 -1.0597022 -1.4458917 1.6147268 1.5844105
2.0522773 -2.1435642 2.266345 -1.1305953 0.8039852 0.79341143 1.0724263 -1.272687
-1.652816 -2.795315 -0.46839204 2.085811 0.59519726 -1.6403054 0.30759922 2.2630186
2.1621013 -0.038322113 1.7654638 -6.06676 0.5131407 0.5881946 1.9812593 0.6957116
1.8799424 -2.2688007 0.10277705 1.2584513 0.9845871 -0.7226085 1.7001691 0.43036482
-1.5534711 2.5169609 2.4053578 0.6406851 0.14314348 1.7777883 1.4540658 0.008174073
-1.2270904 1.5265055 2.3771641 1.8368345 -0.07304957 -4.120351 -2.2571194 -0.31943408
-0.60182005 0.57521206 0.6623106 1.6462002 0.14830972 0.04109185 -0.9820873 0.26440388
-0.3541143 1.0799446 -0.42191845 -0.77657545 0.2766073 -2.3936968 -0.6042391 1.4855673
-2.553447 -4.844767 0.45927733 -1.2920325 -3.397101 0.6895425 -1.5210414 -3.4465466
-1.5122321 0.78229886 0.46972528 -4.269924 -0.12973486 -1.3130097 -0.06817882 1.8833189
0.4396177 1.1294968 1.4688967 -0.14831899 1.0782051 0.3742899 -0.40519553 -0.058504112
-1.584311 4.4337482 -1.737981 0.31327894 9.454787e-05 -2.8718114 -2.7106895 1.0778977
-1.4318734 1.7000675 0.0058148107 -0.74387753 -1.8557823 0.21669598 -0.69659376 1.806814
0.30707312 0.48816848 1.8895067 0.38213313 -0.5215495 2.1740394 -0.50008565 3.3527944

bn1.running_var f4 [256]
00000000: 899c 1842 e3b7 2442 e69c 9c41 a1fc 5142
00000010: 711f a43e 62a2 bb41 f355 f341 2e3d 4642
00000020: 9a7d 3e42 18e6 b53f f166 8f3f 05c0 a63f
00000030: ca0c 4342 1fe6 1042 1a96 a241 8993 5d42
00000040: bc83 f741 0fbb 5d40 28f3 dc41 a52a 2842
00000050: a2a0 9d3f 63f1 a342 8d28 c73e e294 0442
00000060: 11de d73e b5e1 233f c1d5 f83e 8899 6e3f
00000070: 5c49 7f3e 6e5e cf3f 8d9f 4e42 c81b 493f
00000080: 9523 c542 e972 973f 8810 2042 a205 2e42
00000090: 41e1 453f 6d09 1742 896f a93e 0808 8640
000000a0: c9bf 0041 9495 e03e d19b 0942 8280 5042
000000b0: 19b1 c241 d738 f341 daf0 033f f814 c83e
000000c0: 28d2 1742 f56d 0d3f f208 8b42 5c68 8c40
000000d0: 8f60 5942 e713 a842 7005 8c42 05bf 183f
000000e0: 2b9a 9b41 d508 d741 bab9 2142 3aa9 5242
000000f0: 4eab c842 bc4c 2642 1203 a642 30d9 5f42
00000100: c000 8242 391a 1441 8d6d 1c42 acd6 fd3e
00000110: c521 1442 78c8 2242 5aa5 d241 ec88 7b3f
00000120: 8ada ff3f 1d69 4b42 b5c9 1b3f a660 2742
00000130: aad5 4042 8c64 1d41 0f06 8c42 d80d 5742
00000140: 0345 3742 52cc 3841 b625 243f fca5 bd42
00000150: 8a42 2142 57b5 533f 7473 7c42 e44c e041
00000160: bf36 0941 da7d 8042 48af 9f42 c696 5342
00000170: 3d16 4d42 d781 3040 4f9e fd3f 9a61 6842
00000180: ea63 7542 e6e1 c342 9ce3 b73f 1106 2042
00000190: 32de 2942 deaf d13f 75d5 8242 411d 4a42
000001a0: fa09 3442 e4a3 4342 e7e1 5b42 cfec 503f
000001b0: 7a45 943e f68e 973f 2cf7 843f 63cb 1942
000001c0: 9578 1041 fe78 a842 5e18 2c41 fa00 5d41
000001d0: 1f3c 3a3f 330f df42 7001 c442 81df 6c42
000001e0: 79d8 5442 a640 5342 5ece a941 797e d53e
000001f0: 89c5 7a42 7a88 8742 b498 b441 2d28 0041
00000200: 7615 2a42 0c27 0a42 7b28 b43e 3e9b 9841
00000210: 7553 763f 0ac1 2940 bd27 af40 c1b4 7b42
00000220: 8268 3942 a0dd b642 8b60 2a42 fa34 c541
00000230: 2670 6840 9988 e73f 0f7d de42 5c4d fd41
00000240: 60d8 a442 4f9b 8242 2915 dc41 80c4 8742
00000250: fb08 6140 39cb 1c3f 69b3 a33f 8b19 2640
00000260: 6357 c142 37f8 5842 4b2e 3742 7346 0542
00000270: 5de1 e23e 2dee 9841 1c82 343f 9add 633f
00000280: 6c28 0940 4eb0 c53f bd67 6542 d06f a842
00000290: 4c3b 1541 f8f4 2641 d3c2 6e3f a821 2742
000002a0: d255 933f 9a2d 7742 220c 553f eace 0042
000002b0: f3ce 1842 fd6e da3e 493b bc41 e04b 293f
000002c0: 6e31 893f c6b6 1b42 4292 ab41 9501 1b42
000002d0: daa5 5142 0a80 d741 9089 1640 f4cc 1e42
000002e0: 17ba db3f 1904 1a42 ba19 0341 4334 163f
000002f0: 80b8 d641 141c 7442 c1b4 1142 ea0a ad41
00000300: 4c55 2842 afe2 5d40 fd82 c641 dfd4 6f41
00000310: 0d85 973f 3d93 5c40 5b6a 8142 7ece 843f
00000320: 1a74 5842 4484 063f 4962 813f 6429 2541
00000330: 4183 5742 3059 9242 f39f 0e42 d23a f941
00000340: 4eb8 5242 a971 8b42 76e7 aa3e b3d7 5141
00000350: c50a 2e41 e2c8 0542 0677 c53f 67db aa42
00000360: bcfe c740 4889 5b3f b88b 473f 851a 9b41
00000370: 372b 023f 1ba2 0242 083d 9541 37c7 7f42
00000380: b0a3 e33e f640 ea42 3392 8a42 0f73 a33f
00000390: 0f51 b142 e229 523f 1d81 913f a65f 833f
000003a0: 2734 2941 62d8 a341 dd7d dc41 c8b0 5941
000003b0: 0642 de41 e902 bf3f 3570 8142 9e1b 853f
000003c0: de2e 3140 1435 8942 2813 183e 7252 773f
000003d0: 7b08 2c42 b5bd 1142 7e24 9640 4ee5 8342
000003e0: 4d74 3a42 5642 2942 58e5 f03f 30f9 3741
000003f0: 2cf1 8f3f d6ec f741 1821 2e3f 0c9f ac3f
38.152866 41.179577 19.57661 52.496708 0.32055238 23.454288 30.416967 49.559746
47.622658 1.4210844 1.120329 1.302735 48.76249 36.224728 20.323292 55.394077
30.939323 3.4645422 27.618729 42.041645 1.2314646 81.97146 0.38898125 33.145393
0.4216161 0.64016277 0.4860058 0.9320302 0.24930328 1.6200693 51.65581 0.78558016
98.569496 1.1831943 40.016144 43.5055 0.77296835 37.759205 0.33092907 4.1884804
8.046823 0.4386412 34.402164 52.125496 24.336473 30.402754 0.51539385 0.39078498
37.95523 0.55245906 69.51747 4.387739 54.344296 84.03887 70.01062 0.5966647
19.450277 26.879313 40.431374 52.66526 100.33458 41.574936 83.006 55.962097
65.001465 9.256402 39.106983 0.49577844 37.032978 40.69577 26.330738 0.982558
1.9988568 50.85265 0.60854656 41.844383 48.208656 9.837048 70.01183 53.76352
45.817394 11.549883 0.6412004 94.82419 40.31498 0.8269858 63.112747 28.037544
8.575866 64.245804 79.84235 52.89724 51.271717 2.7579248 1.9813937 58.095314
61.347572 97.94121 1.4366336 40.005924 42.466988 1.6381795 65.41691 50.52857
45.009743 48.91005 54.970608 0.8161134 0.28959256 1.1840503 1.0387931 38.44862
9.029439 84.23631 10.755949 13.812738 0.7274799 111.529686 98.00281 59.218266
53.2114 52.813133 21.225765 0.41698053 62.692905 67.766556 22.574562 8.009809
42.520958 34.53813 0.35187134 19.075802 0.96221095 2.6524072 5.473601 62.926517
46.35206 91.43286 42.59428 24.650867 3.631845 1.8088561 111.244255 31.662773
82.42261 65.30334 27.510332 67.88379 3.5161731 0.61247593 1.2789127 2.595309
96.67068 54.242397 45.795208 33.318798 0.44312564 19.116297 0.7051103 0.8901001
2.1430922 1.5444429 57.351307 84.21838 9.326977 10.434807 0.9326603 41.782867
1.1510565 61.794533 0.8322164 32.202065 38.2021 0.42662802 23.528948 0.661314
1.071821 38.92849 21.446415 38.751545 52.411964 26.93752 2.3521461 39.70015
1.7166165 38.504 8.193781 0.58673495 26.840088 61.02742 36.426517 21.63033
42.083298 3.4669607 24.81396 14.9894705 1.1837479 3.4464867 64.707726 1.0375516
54.11338 0.5254557 1.0108119 10.322605 53.878178 73.174194 35.6562 31.15372
52.679985 69.72199 0.33379716 13.115161 10.877629 33.446175 1.5426948 85.42852
6.2498455 0.8575635 0.7794757 19.387949 0.5084719 32.658306 18.6548 63.944546
0.4446082 117.12688 69.285545 1.2769488 88.65832 0.8209516 1.1367527 1.0263565
10.5752325 20.480656 27.561457 13.6056595 27.782238 1.4922763 64.719154 1.0399053
2.7684855 68.60367 0.14851058 0.96610177 43.00828 36.43526 4.6919546 65.94786
46.613575 42.31478 1.881999 11.498337 1.1245475 30.990643 0.6801925 1.3486037

l2.weight f4 [512, 256]
00000000: a9a9 68bd acfd 29be dfff acbd 4a74 0e3e
00000010: 6be4 943c 5e24 223d c460 50be b291 ccbd
00000020: 3b7e 07be 4850 80bd fcf4 6d3c 123a 9cbd
00000030: 73de 2f3d df30 42bf 8c72 fdbe fb78 99bd
00000040: 0b6a dd3d 3381 abbb c424 6dbc f974 313d
00000050: b698 d93d caf7 b53d ec1f 7e3d 37c7 573c
00000060: c72a 5ebc 198c c03d 6da1 d73d f4db 063d
00000070: 4f0c 8c3d 4023 63bc a31b 07bd d508 2d3d
00000080: d402 7b3e 03e0 7a3d a4e6 f23c f725 e5bd
00000090: 552b 143c 1e78 66be 5417 133d 9782 c2bd
000000a0: 9c0c 8bbe 60af c83c 96cc b8bd b351 573e
000000b0: a018 ff3d a207 d83d 8d70 583c 2ba4 46bd
000000c0: 6e39 87be 6ab4 8ebd 9b0d d73d 88db 0ebe
000000d0: 5318 ebbc a144 d13c 23b3 20be 5925 873d
000000e0: 7dcf 003c 93b3 a33e 9b7c 173e b738 45be
000000f0: e9f0 ad3e d2b1 51bc aabd 12bf 18ed 29bd
00000100: f280 103e 5977 dbbd 9590 1cbe 76cf bc3a
00000110: 66b7 2d3e 69bb 033e 7433 6a3d 4911 573d
00000120: 45ba 98bc 36ee a8bf 10fe 11bd 5e91 9f3d
00000130: 7ceb 1abe c028 ecbb 811f 403e dd8e 953d
00000140: 19d8 33be bf4d c83c 4cf2 c5bb 1a9a a63d
00000150: c070 1e3e e09a adbd 570c 773d 2b1a d83d
00000160: 72f0 6abd 643f 143e b4fa 31be c0aa 6fbc
00000170: 41c2 54bc d4ee 33bc 2003 84bd ffc0 8e3d
00000180: 64a3 ca3d e65e f13d 3625 9c3d 56dd a4bd
00000190: cbe7 8e3c c0b8 58bd 4212 05be 6b1a 483d
000001a0: 7114 603d 5d3f f2bd b65d aebe ccb4 433d
000001b0: 9ac8 1c3c 270f 1e3d 1117 843c 6531 d23d
000001c0: f8e3 ab3d ac11 3a3e ac1a 8abe 3faa 6e3d
000001d0: bf82 48bd f576 ed3d dd3c 123e 3feb 2dbe
000001e0: 7f63 4ebe 8fb3 42bd 0593 b93b 23c7 b93c
000001f0: 6221 3a3e 4818 99bd 9ea2 af3d 2eff a53d
00000200: ceb0 263e 93b2 bebc ec46 cc3d b9bf 2b3d
00000210: 57ca 283d 1380 0c3e 53f1 8a3e 4320 f5be
00000220: 72a5 57bc 0a4f 6a3d 68c9 30be 8c34 393e
00000230: 46e6 ebbd 3371 133d 1cfb 90be 9fc9 da3d
00000240: 0bc9 083d 4393 bc3d baec 033e 28b4 8c3d
00000250: 2aeb 223e f68b 29bd 8787 5bbd 4ce8 153e
00000260: 4969 7a3e bea1 b63d 7f1a 773d 7715 0abf
00000270: 0813 033e ceac ce3d a363 a93d 590e cb3d
00000280: 7ba4 bfbd e79d 61bd 26e5 6f3d 6219 b5bd
00000290: cc13 6ebd 34e4 2cbe 9b54 5bbd e71a ffbd
000002a0: edb3 5a3c aacf 75bd ec80 9b3d 6605 5fbd
000002b0: d687 333c a395 da3d 9695 833d f905 c4bd
000002c0: 7c53 073e fda8 733d 3632 a8ba bb76 1b3e
000002d0: 05ed 913d 41d5 df3c 01c4 0a3d 8c5f 103e
000002e0: edc9 6bba 6229 a83d 097e cc3c c474 613d
000002f0: e2da b93d 06a3 abbd 8bcf 173e 2f52 0a3e
00000300: 45b8 7e3e 37dc 45bd f9a4 d6be c082 86be
00000310: ac0f 113d b92f 85bc 3cf3 35be 5dec 923b
00000320: 344e 0d3d b654 273e 1365 003d d8ae 8fbe
00000330: cba3 82be 9ab3 a2bd 5748 94bd 2e6e 93be
00000340: 93fd 0d3c e1af ffbc 79a2 e23b e2cb 2ebd
00000350: 11ed 213e cb4f 5dbb 574e fd3c f26d 7ebd
00000360: 6f31 873c d92c 90bd 31ce a53d 5eda 38bd
00000370: 4720 cb3d 849d f43d fcbe 8abb 13d6 0abe
00000380: 78fb 5c3d 16c5 44bd 9801 44be 7d26 51bd
00000390: 999f 0b3e 5d73 c63b a287 ae3c 462f 6f3d
000003a0: 1100 993d 4202 8e39 7269 933d 1717 f6bc
000003b0: 24f5 083c 1883 4e3e 82ca 2bbd e2d5 be3c
000003c0: f9b5 073e 2efc 733e 9c98 3d3c b64a 69be
000003d0: de6e 233e dca5 113b e864 0dbc 83d3 29bf
000003e0: 3925 263e 59fb 7e3e dcc6 a1bb d9ac 2d3e
000003f0: a763 cd3d 64d4 b3be 3559 d63d ea10 ffbc
-0.056802426 -0.16600674 -0.08447241 0.13911548 0.018175324 0.039585464 -0.20349413 -0.09988727
-0.13231747 -0.062653124 0.014523741 -0.076282635 0.042936753 -0.7585582 -0.49501455 -0.07493778
0.10811242 -0.0052339076 -0.014474098 0.043324444 0.106248304 0.08885153 0.06204216 0.013170055
-0.013560004 0.094017215 0.105288364 0.032924607 0.06838285 -0.013863385 -0.03298534 0.04224475
0.24512798 0.06124879 0.029650994 -0.11188882 0.009043534 -0.22506759 0.03591092 -0.09497564
-0.27158058 0.024497688 -0.09023397 0.2102726 0.12455869 0.10548331 0.013210428 -0.048496407
-0.26411003 -0.06968005 0.10500642 -0.13950932 -0.028698122 0.02554542 -0.15693335 0.065989204
0.007861969 0.31972942 0.14793627 -0.19259916 0.33972862 -0.012798743 -0.57320654 -0.041485876
0.14111689 -0.10716123 -0.15289529 0.001440509 0.16964492 0.1286446 0.057177976 0.05250672
-0.018643508 -1.3197696 -0.035642684 0.077913985 -0.15128893 -0.007207006 0.18762018 0.0730264
-0.17562903 0.024451135 -0.006040847 0.08134861 0.15472698 -0.08476806 0.060314503 0.10551866
-0.057358213 0.14477307 -0.17380792 -0.014628112 -0.012985767 -0.010982234 -0.064459085 0.06970405
0.098944455 0.117856786 0.07624285 -0.08050029 0.017444512 -0.052910566 -0.12995246 0.04885332
0.054706994 -0.11828492 -0.3405587 0.047779843 0.0095693115 0.03858867 0.01612428 0.102633275
0.08393091 0.18170804 -0.26973474 0.058267828 -0.048952814 0.11594955 0.1428103 -0.1698427
-0.20155142 -0.04753452 0.005663278 0.022677964 0.18176797 -0.074753344 0.08575939 0.08105312
0.16278383 -0.02327851 0.09974465 0.041930888 0.04120859 0.13720731 0.2713724 -0.47876176
-0.013162004 0.057204284 -0.1726433 0.18086451 -0.115185305 0.035996627 -0.2831658 0.106829874
0.033394855 0.092077754 0.12883273 0.068702996 0.1591002 -0.041393243 -0.053596046 0.14639395
0.24454226 0.089175686 0.060328003 -0.53939 0.12800229 0.10091554 0.08270957 0.09914846
-0.09357544 -0.055082228 0.058568142 -0.08842732 -0.05812435 -0.16883928 -0.053547483 -0.12456303
0.013348562 -0.060012497 0.07592949 -0.054448508 0.010957679 0.10673072 0.06425016 -0.09571452
0.1321544 0.05948733 -0.0012832347 0.15182011 0.07125286 0.027323367 0.03387833 0.14098948
-0.0008994628 0.08211018 0.024962442 0.055042997 0.09074952 -0.08380704 0.14825265 0.13507913
0.24874981 -0.048305716 -0.4192274 -0.2627163 0.035415336 -0.016258107 -0.17768568 0.004483743
0.03449841 0.16340908 0.031346392 -0.28063083 -0.2551559 -0.079444125 -0.0724036 -0.28794998
0.008666414 -0.031211795 0.006916341 -0.042674907 0.1581309 -0.0033769484 0.030921144 -0.06211657
0.016503064 -0.07039804 0.080959685 -0.045130126 0.09918266 0.11944106 -0.004234193 -0.13558225
0.053950757 -0.04803952 -0.19141233 -0.051062096 0.136351 0.006056233 0.02130491 0.058394693
0.07470716 0.00027086033 0.071978465 -0.030040307 0.008359227 0.20167196 -0.041941173 0.023295347
0.13253011 0.23826668 0.011572029 -0.22782406 0.15960261 0.0022224104 -0.008630015 -0.66338366
0.16225137 0.24900569 -0.004937036 0.16960467 0.10028773 -0.3512298 0.10466234 -0.031135995

l2.bias f4 [512]
00000000: 70db 96b9 c4b4 adba 7d8d 103c 9199 6d3d
00000010: 454e 11bd cbf2 58bc 2524 4cbd a7af ef3c
00000020: 9dce 493d b901 c3bc 3b1e 80bb bc71 7b3d
00000030: ce79 8b3c caa8 9ebc f80f be3b 2513 dfbc
00000040: 7dd0 20bd 0b1a 3b3d 3d36 3c3d e378 103d
00000050: 4ec4 0dbd ca91 a7b9 f532 35bd 962a 9dbc
00000060: ce98 693b c1d4 553a 52c9 bb3c 595f b4bc
00000070: 93fa 7bbd c437 22bd 77fb c5bc 3b24 e73b
00000080: c946 9dbb f7ba 11bd c133 6fbd 82d1 e0bc
00000090: f51f 0cbc 74a1 b6bc 7ec6 413d 3125 503d
000000a0: 65a4 1b3d 23a2 debc d7b9 c8bb a98a 06bd
000000b0: 46d9 8e3c 8d43 1fbd d7af b5bc 34b1 0abd
000000c0: b084 4abd c536 39bd de9b 42bd 4014 74bb
000000d0: 3864 283d 3335 5ebc a14b 323d 7530 1f3d
000000e0: bf4e 443d d167 98bc 04fc dc3c d1ce f0bb
000000f0: d085 09bd b83b 00bd ed95 54bc 4793 0cbd
00000100: a07e 99bc 102f 16bd 0a9e e4bc 94e6 66bd
00000110: c8a2 703d 8fd8 a5bc a42c 523d 9eac 3d3d
00000120: aa0d f73c 2bd3 593d 28ce a9bc 79a9 b23c
00000130: c7be 8c3b ba48 e43a 52d4 1f3d df52 dfbb
00000140: 9766 41bd 3055 2b3d d023 dd3c 300e d9bb
00000150: 5acc 1dbd 4dd7 ecbc 801a fabc 81b8 ebbc
00000160: 6b35 a6bc 02bc 82bc b194 0abd 2f6c 403d
00000170: 2c44 debb a538 1cbd 7a05 683d 4482 65bd
00000180: 7450 3cbd 77b8 3c3c ab46 373b bc31 573d
00000190: 1547 e2bb aabd 403c d7b3 6c3d 4c8c 02bd
000001a0: 0107 763d a699 72bb 6ff6 a8bc 77fe 81bc
000001b0: 8016 183d ecdd 003c 76b7 70bc c6ae 003d
000001c0: 566e 4d3d 2ed1 2dbc a381 d53b 43b5 01bd
000001d0: 7b75 a33c 13a1 773d a930 3bbd 3f07 bebb
000001e0: f3f0 23bd 20d9 123d f548 a53b 2378 2f3d
000001f0: a148 27bd 8324 16bd 0f75 e7bc 6087 81ba
00000200: 59d6 12bd 5f0a fcbc 80af 9bbc cb58 39bc
00000210: ad0e 033b b001 40bd 231b 44bd bca1 4b3d
00000220: 2b40 c43c 6c83 e8bc d344 a1bc 7455 5c3d
00000230: 673f 3ebc 4ca2 383d 9743 5fbd 009b 29bd
00000240: 896f a93c 63df 293b 3de0 943b 0bdf 363d
00000250: 0923 0ebd fb4a 00bd 2217 c5bc fc9d b9bb
00000260: e86c 313d 61ba 1f3d f29c aebb 78d9 2bbd
00000270: 08ac 593b 19cc 90bc 952b 4e3c defc 3d3d
00000280: db4f 2dbd 406c 5a3d 1f22 2dbd 6b32 043d
00000290: db61 323d 2d3c 15bd a8e4 dc3c d2eb 48bd
000002a0: 0d3a 0c3d b197 e43c 295a 5d3d 70c2 e8bc
000002b0: ab9c 5b3d 0777 5e3d 17bf 2ebb a189 78bc
000002c0: 5deb 04bd 06f5 473d a2d8 a63c 2f16 403d
000002d0: 15fd 21ba a29c 0abd f5cd ebbc 7269 533d
000002e0: bcb2 773c 09d5 3cbc 5aac c6bc a006 56bd
000002f0: 7387 403c bcf6 fa3c 2e4b 32bc 2474 3bbd
00000300: 5d97 453d 14a7 4e3d fee7 a83b 9507 693d
00000310: 5be7 afbb 11ae 99ba 5c5d cf3c baf0 59bd
00000320: ca0b 1dbd d691 4e3c 4147 6a3d c959 9cbc
00000330: 147e 683d 0abc 753d de69 303b c101 083c
00000340: 2207 793d f9cb 4e3b 8948 133d 16d1 733d
00000350: a350 533d 6720 32bd e1c5 42bd 3380 003c
00000360: d09a 603d 71a5 6dbd 36f5 413d 5e96 76bd
00000370: b5a5 25bd f131 263c cfcf 5dbd 175f 083c
00000380: 5f68 81bc 27f4 233d 5776 1bbd f743 813c
00000390: 0562 47bc 0370 13bd 016c bebb 8ba2 523d
000003a0: 925d 86bc bc57 e7bc e378 4dbd ec69 4eba
000003b0: a219 09bc 0e62 2d3d 3fe4 0b3c 87a2 95bc
000003c0: 8f74 143d b68e 1dbd bceb 38bd f560 07bc
000003d0: a02c fabc ec98 65bd 102b 46bd d99f a63c
000003e0: ab08 473d b1f5 aa3b be71 573d 2c59 3bbc
000003f0: 9a28 a13c b32d 4bbc 60f5 c4bc bd58 403d
-0.00028773723 -0.0013252725 0.008822796 0.05800778 -0.035475034 -0.01324148 -0.049839158 0.029258562
0.049269307 -0.023804532 -0.0039098538 0.061387762 0.017025854 -0.019367594 0.0058002435 -0.027230809
-0.03926133 0.045679133 0.045950163 0.035271537 -0.03461104 -0.00031961343 -0.04423805 -0.019185346
0.0035644057 0.0008157008 0.022923145 -0.022018122 -0.061518263 -0.039603963 -0.02416776 0.0070538796
-0.004799698 -0.035578694 -0.058398966 -0.027443651 -0.008552541 -0.022293784 0.047308438 0.05081672
0.037998576 -0.027176922 -0.0061256695 -0.03284708 0.017437588 -0.03888278 -0.022178574 -0.0338604
-0.049442947 -0.045218248 -0.047511928 -0.0037243515 0.0411112 -0.013562488 0.043529157 0.03886457
0.04792666 -0.018604191 0.02697564 -0.007348873 -0.03357488 -0.031306952 -0.012975198 -0.034320142
-0.018737137 -0.036665976 -0.02790739 -0.05637224 0.05874899 -0.020244865 0.051312104 0.0463072
0.030157883 0.0531799 -0.020728186 0.021809326 0.0042952034 0.0017416694 0.039020844 -0.006815299
-0.047216978 0.041829288 0.026994616 -0.0066240057 -0.038524963 -0.028911257 -0.030530214 -0.028774502
-0.020289144 -0.01595879 -0.03383321 0.046978172 -0.006783029 -0.038139958 0.056645848 -0.056032434
-0.045975164 0.011518589 0.0027965705 0.052537665 -0.0069054463 0.011763969 0.057788696 -0.03187208
0.060065273 -0.003701785 -0.020625321 -0.015868409 0.037130833 0.00786541 -0.014692178 0.031416677
0.050154053 -0.010608954 0.006515698 -0.031667005 0.01995348 0.060456347 -0.045700703 -0.0057992036
-0.04002471 0.035851598 0.0050440975 0.04283918 -0.04084075 -0.036655914 -0.02825406 -0.0009882264
-0.03584895 -0.030766664 -0.019004583 -0.011312674 0.001999776 -0.04687661 -0.047877442 0.04971479
0.023956379 -0.02838298 -0.019686138 0.053792432 -0.011611796 0.045076653 -0.054507818 -0.041407585
0.020683067 0.0025920502 0.004543333 0.044646304 -0.03470138 -0.031321507 -0.024058882 -0.005664585
0.04331675 0.038996104 -0.005328768 -0.04195544 0.003321411 -0.017675446 0.012583633 0.04638373
-0.042312484 0.05332589 -0.04226887 0.032274645 0.043550353 -0.03643434 0.0269645 -0.04905302
0.03423505 0.027904363 0.05404106 -0.028413028 0.053616207 0.054312732 -0.0026664191 -0.015169532
-0.032451022 0.048817657 0.02036697 0.046896156 -0.0006179375 -0.033840783 -0.028784731 0.051614232
0.015118297 -0.011525401 -0.024252106 -0.05225241 0.011751044 0.03063523 -0.010882182 -0.045765057
0.048240054 0.050452307 0.0051546087 0.056891996 -0.005368156 -0.001172485 0.025313072 -0.05320809
-0.03834132 0.012608012 0.05719686 -0.019085782 0.056760862 0.05999378 0.002691857 0.008301199
0.060797818 0.0031554683 0.035957847 0.05952557 0.051590573 -0.043487933 -0.047551993 0.007843065
0.05483514 -0.058019105 0.047352992 -0.060201995 -0.040441234 0.010143743 -0.05415326 0.008323452
-0.015796838 0.040027764 -0.037954655 0.015779478 -0.012169366 -0.035995495 -0.005811215 0.051424544
-0.01640204 -0.028240077 -0.050164115 -0.000787406 -0.008367928 0.04232984 0.008538305 -0.018265976
0.03624397 -0.038466178 -0.04514669 -0.008262862 -0.030538857 -0.05605404 -0.04838091 0.020339893
0.04859225 0.005217277 0.052598707 -0.011434834 0.01967268 -0.012401032 -0.024042785 0.046959627
